dqn_model_best.pt (torch, 15461 bytes, 6 tensors)

fc1.weight f4 [32, 25]
0	0x3dc43ee3	0.09582307
1	0xbd96d59a	-0.0736496
2	0xbe35c61f	-0.17751358
3	0x3e00a900	0.12564468
4	0x3d9a15b0	0.07523668
5	0xbd99b700	-0.075056076
6	0x3e10100a	0.14068618
7	0xbda7c087	-0.081910186
8	0x3e0b43ef	0.13600133
9	0x3d9c72bd	0.07639072
10	0x3e35140b	0.17683427
11	0x3e1b608f	0.15173553
12	0xbe224b18	-0.15848958
13	0x3dec4c23	0.115379594
14	0xbd32968d	-0.043600608
15	0xbdc6a7e0	-0.09699988
16	0xbe2f434f	-0.1711552
17	0x3e039b08	0.12852108
18	0xbe00bf43	-0.1257296
19	0xbdde96f3	-0.10868635
20	0xbe25c735	-0.16189273
21	0xbdf72e2a	-0.12069352
22	0xbba8369a	-0.005133462
23	0xbcddae4d	-0.027060652
24	0x3da57320	0.08078599
25	0x3e291bcf	0.16514514
26	0xbe2af720	-0.16695833
27	0x3ddcf6ae	0.10789238
28	0xbdf63f28	-0.12023765
29	0x3eb480b6	0.3525445
30	0x3e246f2d	0.16058035
31	0x3f084193	0.5322506
32	0xbf42801a	-0.7597672
33	0x3ed361b8	0.4128549
34	0xbfc8d407	-1.5689706
35	0x3e1c7983	0.15280728
36	0x3f40fe7e	0.75388324
37	0x3f367f58	0.7128806
38	0x3d95326e	0.07285009
39	0x3f49c2fb	0.7881314
40	0x3e3d97c5	0.18514927
41	0xbdd62ebc	-0.104581326
42	0x3b206f9b	0.0024480585
43	0x3d8c9965	0.06865195
44	0xbfa53f25	-1.2909895
45	0x3d4b09bd	0.049569834
46	0x3dda8811	0.10670484
47	0x3df7aff9	0.12094111
48	0xbe2cdf81	-0.16882135
49	0xbe83f925	-0.2577602
50	0xbd644a25	-0.055734772
51	0xbe84efd5	-0.25964227
52	0xbe5c37a0	-0.21505594
53	0xbe4acf0e	-0.19805548
54	0xbe987255	-0.29774728
55	0x3cdc2839	0.026874648
56	0x3f3d799f	0.74013704
57	0xbf8be665	-1.0929686
58	0xbc793197	-0.015209577
59	0xbfe927ff	-1.8215331
60	0x3e021930	0.12704921
61	0x3eb548c9	0.35407093
62	0xbcf14171	-0.02945015
63	0x3ef822c1	0.48464015
64	0x3eee79a9	0.46577194
65	0x3de1bed0	0.11022723
66	0x3ec9cd9a	0.39414674
67	0xbea431ba	-0.32069188
68	0x3e766dc3	0.24065308
69	0xbf211077	-0.6291575
70	0x3c16adb4	0.0091966875
71	0xbd2f0e4f	-0.042738255
72	0xbd8ba882	-0.0681925
73	0x3e984c79	0.29745844
74	0x3e1cc1f5	0.15308364
75	0x3da7797f	0.081774704
76	0x3e382c87	0.17985736
77	0x3d3c277a	0.045936085
78	0xbd1f9992	-0.038964815
79	0xbdbbedd6	-0.09176223
80	0xbd2d8a69	-0.042368326
81	0x3f94db67	1.1629456
82	0x3f6c6851	0.92346674
83	0x3ee4eed6	0.44713467
84	0x3ed67056	0.4188258
85	0xbe0fbce0	-0.14036894
86	0xbec6f1b1	-0.3885627
87	0x3e52418e	0.2053282
88	0xbe8089cf	-0.2510514
89	0xbf31378d	-0.6922539
90	0xbe2df480	-0.169878
91	0x3f033e88	0.5126729
92	0xbe74336b	-0.2384774
93	0xbc1277e9	-0.008939722
94	0x3da771b8	0.08175987
95	0x3e2427f3	0.16030864
96	0x3e576f19	0.21038474
97	0xbd6b720e	-0.057481818
98	0x3ccb7453	0.024835741
99	0x3f75c44a	0.9600264
100	0x3d49d153	0.049271893
101	0xbc33b2b3	-0.010967898
102	0x3ca24b27	0.019811226
103	0xbde4e0e0	-0.11175704
104	0x3d2be68d	0.041967917
105	0x3e1e54e8	0.15462077
106	0xbe1af0df	-0.15130948
107	0x3dbf0677	0.09327405
108	0xbe32c61f	-0.1745839
109	0x3c94de00	0.018172264
110	0x3b861d9a	0.0040928842
111	0x3cf9cacd	0.03049221
112	0x3ddb8c40	0.1072011
113	0x3da72fe3	0.081634305
114	0xbd61c39a	-0.05511818
115	0xbe3bc392	-0.18336323
116	0x3d874e5d	0.066067435
117	0x3e2862c8	0.16443932
118	0x3dc4bc7d	0.09606264
119	0xbe348c8f	-0.17631744
120	0xbdd66a3d	-0.10469482
121	0xbdb82ffa	-0.08993526
122	0xbd3ee5e0	-0.046605945
123	0xbe2f25d2	-0.17104271
124	0x3e13d002	0.14434817
125	0x3e1d9fca	0.15392986
126	0x3e06cb12	0.13163403
127	0x3ec7ae74	0.39000285
128	0x3e0d8453	0.13820009
129	0x3e579e72	0.21056536
130	0xbd96811d	-0.07348845
131	0xbf20cca0	-0.6281223
132	0xbfd9afbd	-1.7006756
133	0xbdc074fe	-0.093973145
134	0x3d2c40ba	0.042053916
135	0x3d853a45	0.06505255
136	0xbeb6eff2	-0.3572994
137	0x3e3354dd	0.17512842
138	0xbe9bf363	-0.30459127
139	0x3f38bfae	0.7216748
140	0x3e3ba6dd	0.18325372
141	0xbe850adf	-0.25984856
142	0xbdfc67ef	-0.12324511
143	0xbef6243d	-0.48074523
144	0xbf082ec6	-0.5319637
145	0xbe0c4235	-0.13697131
146	0xbd7140a5	-0.05889954
147	0xbdadb510	-0.084818006
148	0xbf1396ad	-0.5765179
149	0xbed3e0eb	-0.41382536
150	0x3d5238c6	0.051323675
151	0x3ca68f76	0.02033208
152	0xbf22376e	-0.6336583
153	0x3d8b3c82	0.0679865
154	0xbf005366	-0.50127256
155	0x3e1e8315	0.15479691
156	0x3d5bda47	0.053674962
157	0xbf10e388	-0.56597185
158	0xbee1080a	-0.43951446
159	0xbf46fdfe	-0.7773131
160	0xbd610c03	-0.054943096
161	0x3f68c0ff	0.9091949
162	0x3d2778c2	0.040886648
163	0x3cd884c4	0.026430495
164	0x3e989899	0.29803923
165	0xbe37db1b	-0.17954676
166	0x3cc39b61	0.023877801
167	0x3e14d21a	0.14533272
168	0xbe1133a5	-0.14179857
169	0xbdb30d86	-0.08742814
170	0x3d4cd2fe	0.050005905
171	0xbc354903	-0.011064771
172	0xbd896bbd	-0.067100026
173	0xbec18495	-0.37796465
174	0xbee6f505	-0.4510881
175	0x3de48cfb	0.111597024
176	0x3dfb768e	0.12278472
177	0x3dda76cd	0.10667191
178	0xbd3d5dd0	-0.046232045
179	0x3e6a93cc	0.22907943
180	0xbd3daff5	-0.046310384
181	0xbe82f3c2	-0.25576597
182	0x3fd53b05	1.6658636
183	0x3e850e76	0.25987595
184	0x3ee38589	0.44437817
185	0x3d6ad69d	0.057333577
186	0x3e70ba75	0.23508628
187	0xbd7fee24	-0.062482968
188	0x3d8cf0b5	0.06881849
189	0xbe36aaf9	-0.17838658
190	0x3e11788c	0.14206141
191	0x3b5cb815	0.0033679057
192	0xbde03603	-0.10947802
193	0xbdc2e140	-0.09515619
194	0x3e56a542	0.20961478
195	0x3e1790c7	0.14801322
196	0x3d6a524c	0.05720739
197	0x3e32cd81	0.17461206
198	0xbc56538b	-0.013081442
199	0x3e9df709	0.30852535
200	0x3e2c4ea0	0.16826868
201	0x3dac7b66	0.08421974
202	0x3e28e491	0.16493441
203	0x3dd3c4d4	0.10340276
204	0x3eaf37d1	0.34222272
205	0xbd8d4640	-0.06898165
206	0xbfa2f0f8	-1.2729788
207	0xbd934602	-0.07191087
208	0xbef0bfb6	-0.47021264
209	0x3e20301f	0.15643357
210	0x3e7cb9fd	0.24680324
211	0xbe9c6102	-0.3054276
212	0x3de26250	0.11053908
213	0xbdee1dbf	-0.11626767
214	0x3e34de37	0.17662893
215	0x3e49c0a9	0.197024
216	0x3df799e5	0.120899
217	0x3e5ea5fe	0.21743008
218	0xbd8646a3	-0.06556442
219	0xbe22bc43	-0.15892129
220	0xbdb204fd	-0.08692358
221	0xbd3e3d0e	-0.046444945
222	0xba27380a	-0.0006378895
223	0xbe29a407	-0.16566478
224	0xbf3c4a19	-0.73550564
225	0x3cd47f26	0.025939535
226	0x3de597f3	0.11210623
227	0x3e97d060	0.29651165
228	0x3d8199f6	0.06328194
229	0x3ed7d99d	0.42158213
230	0x3d335ce1	0.043789748
231	0xbfb7b5e4	-1.4352384
232	0x3f948ace	1.160486
233	0xbef5bc7d	-0.47995368
234	0x3f2955b6	0.6614641
235	0xbd94c6d0	-0.07264483
236	0x3f0c8c58	0.5490165
237	0x3e9d55a6	0.30729407
238	0x3e5ea11d	0.21741147
239	0xbecbb51f	-0.39786622
240	0x3d91ae8d	0.07113371
241	0x3ea78af0	0.32723188
242	0x3bb74c2d	0.0055937977
243	0xbda7d9e5	-0.08195857
244	0x3f193afa	0.59855616
245	0x3e717aa2	0.23581937
246	0x3e7db920	0.24777651
247	0x3e12fc7b	0.14354126
248	0x3e500b12	0.20316723
249	0x3f80cd95	1.0062739
250	0x3dc11448	0.094276965
251	0xbd9fe5ec	-0.07807526
252	0x3eb8cc88	0.36093545
253	0xbd5c2128	-0.053742558
254	0x3dcfb90a	0.10142715
255	0x3d501bec	0.05080788

fc1.bias f4 [32]
0	0xbdbc717a	-0.092013314
1	0x3c2b5ceb	0.010459165
2	0x3dd1100e	0.1020814
3	0x3dfd54b3	0.12369671
4	0xbe370a8f	-0.17875122
5	0x3b641839	0.0034804477
6	0x3e130156	0.14355978
7	0xbcdece37	-0.02719794
8	0xbe0b4e37	-0.13604055
9	0xbd51b54a	-0.05119828
10	0xbe60e06e	-0.21960613
11	0x3e3210f8	0.17389286
12	0xbd18390d	-0.037163783
13	0x3e3d9f9c	0.18517917
14	0x3ce3fe75	0.027831296
15	0x3d28fb37	0.041255202
16	0xbd4734c6	-0.048634313
17	0xbc383086	-0.011242038
18	0xbafae5e5	-0.0019142
19	0xbe1f1467	-0.15535127
20	0x3c420ca5	0.011843835
21	0x3dc7dab2	0.0975851
22	0xbcf04473	-0.029329514
23	0xbca4e5f0	-0.020129174
24	0x3e3ab5c7	0.18233405
25	0x3e324eae	0.17412826
26	0xbd0580db	-0.03259359
27	0x3e242f5f	0.16033696
28	0xbd979db3	-0.074031256
29	0xbe29feb6	-0.16601071
30	0x3dc188e3	0.09449937
31	0xbdbe686d	-0.092972614

fc2.weight f4 [64, 32]
0	0x3d21e1b7	0.0395219
1	0x3e1c787a	0.15280333
2	0x3e506714	0.20351821
3	0xbc62bf71	-0.0138395885
4	0x3d9b6571	0.07587708
5	0xbb937078	-0.0044994913
6	0xbd9d4376	-0.07678883
7	0xbe11c11e	-0.14233825
8	0xbc9bedcd	-0.01903429
9	0x3dc432c6	0.09579997
10	0xbebd1a56	-0.36934155
11	0x3e50a0ea	0.20373884
12	0xbd530f72	-0.0515284
13	0x3c21b5a9	0.009869971
14	0x3e4706ff	0.19436263
15	0x3cd97017	0.026542706
16	0x3f254201	0.6455384
17	0x3e505902	0.20346454
18	0xbdb4bdc0	-0.088252544
19	0x3e018f83	0.12652402
20	0xbe425c5f	-0.1898055
21	0x3df40576	0.11915104
22	0xbe1bc72d	-0.15212698
23	0x3d01785a	0.031608917
24	0x3d186d13	0.037213396
25	0x3ed9b119	0.42517927
26	0xbe063250	-0.1310513
27	0x3dedfd97	0.11620634
28	0x3dd521bc	0.10406825
29	0xbc3b3e25	-0.011428391
30	0xbdc06208	-0.09393698
31	0xbd0e92dd	-0.03480803
32	0xbe0d5b28	-0.13804305
33	0xbe06d5a9	-0.13167442
34	0xbdd82337	-0.10553592
35	0x3e1963d8	0.14979494
36	0x3dbae77c	0.091261834
37	0xbde94d7f	-0.11391734
38	0xbde6d5b0	-0.112712264
39	0x3d6d4dc6	0.0579355
40	0xbd154434	-0.036441997
41	0xbe11c79b	-0.142363
42	0x3d4a5c0e	0.049404196
43	0x3ce87d2d	0.028380001
44	0xbdfe4bf6	-0.12416832
45	0xbdc48a59	-0.095967
46	0xbd949064	-0.07254103
47	0xbe0df58b	-0.13863198
48	0xbd78ead4	-0.060770825
49	0x3d862caf	0.065514915
50	0xbdd2b7df	-0.10288977
51	0x3d684b59	0.056712482
52	0x3e2e71e4	0.17035633
53	0xbdb24983	-0.087054275
54	0xbcd8ed56	-0.026480358
55	0xbd836df9	-0.0641746
56	0xbd72aca2	-0.059246667
57	0x3e02096c	0.12698907
58	0xbdd9192b	-0.106005035
59	0xbddeabdd	-0.10872624
60	0x3c168b87	0.009188539
61	0x3e1d9835	0.15390094
62	0x3b0eaa11	0.0021768848
63	0x3ddb0d99	0.10695953
64	0xbe07297f	-0.13199423
65	0xbe2fb56a	-0.17159048
66	0x3da17b62	0.078848615
67	0xbca0a582	-0.01961017
68	0x3e1cd44c	0.1531536
69	0xbc915872	-0.01774237
70	0xbd67b4ef	-0.056569036
71	0xbd366de2	-0.044538386
72	0x3cb4ed92	0.022085939
73	0xbdf1d171	-0.11807526
74	0xbd23274b	-0.039832395
75	0xbd91b8d8	-0.07115334
76	0xbccf5cc2	-0.025312785
77	0x3d87bf26	0.066282555
78	0xbe2301ad	-0.15918608
79	0x3e34c43e	0.17652985
80	0x3e07725e	0.13227221
81	0xbe13d50e	-0.14436743
82	0xbd81a0c9	-0.063294955
83	0xbd460a68	-0.048349768
84	0xbde2f63f	-0.11082124
85	0x3e03bc97	0.1286491
86	0xbd8b9cc7	-0.06817012
87	0xbe01b85d	-0.12667985
88	0xbd9acd80	-0.07558727
89	0xbbe3a1bb	-0.00694677
90	0x3dc55cab	0.09636816
91	0xbe2da01b	-0.16955607
92	0x3dc99dab	0.09844526
93	0x3dc11c66	0.09429245
94	0xbdbb0f23	-0.091337465
95	0xbc060b19	-0.008181357
96	0x3d958e0e	0.073024854
97	0xbdde41db	-0.10852405
98	0x3e01e242	0.12683967
99	0xbeebcd08	-0.46054864
100	0x3e1e74ac	0.15474194
101	0xbe384ab6	-0.1799725
102	0xbd61fda6	-0.05517354
103	0xbdc4965f	-0.095989935
104	0x3e610f4d	0.21978493
105	0x3c6dc9af	0.014513417
106	0xbf4283a4	-0.7598212
107	0x3e37cde9	0.17949642
108	0x3e2bd36d	0.16779871
109	0x3c0a3424	0.008435283
110	0x3d7ce6df	0.061743613
111	0x3dfb43cc	0.122687906
112	0x3e2d5285	0.1692601
113	0x3cb53ecf	0.022124676
114	0x3d685e0d	0.05673032
115	0xbc69b4a8	-0.014264263
116	0x3d97026f	0.07373511
117	0xbd7fa7f1	-0.06241602
118	0xbe13241d	-0.14369245
119	0x3e6f04ba	0.23341647
120	0x3db332af	0.087499015
121	0x3e2fecc2	0.1718016
122	0xbeefe2a7	-0.4685261
123	0x3dfd7f8b	0.123778425
124	0xbdc099a7	-0.09404307
125	0x3dc137c0	0.094344616
126	0x3cc21706	0.023692619
127	0x3e2b5a71	0.1673372
128	0x3e2275ed	0.15865298
129	0xbdaf897e	-0.085711464
130	0x3ecc01e0	0.3984518
131	0x3e16d7df	0.14730786
132	0xbdb3b086	-0.087739035
133	0xbe7cd911	-0.2469218
134	0x3dcd5086	0.10025124
135	0x3da4fc9f	0.08055996
136	0x39abc913	0.00032765474
137	0x3da5877e	0.08082484
138	0xbf0b9d89	-0.54537255
139	0xbd8a6575	-0.06757633
140	0xbd8f166b	-0.06986698
141	0x3e354269	0.17701115
142	0x3de440b6	0.11145155
143	0x3e387728	0.18014205
144	0x3f707f43	0.93944186
145	0x3eeda737	0.46416637
146	0x3e03f9c2	0.12888244
147	0x3e06e3b1	0.13172795
148	0x3d4c9c7a	0.049953915
149	0x3da0ab8e	0.078452215
150	0x3d8220fe	0.06353949
151	0xbd83f022	-0.06442286
152	0xbd94435c	-0.0723941
153	0x3ec3967a	0.38200742
154	0xbf002d01	-0.5006867
155	0x3d7fa5ba	0.06241391
156	0x3d99a23a	0.075016454
157	0x3ddd71d4	0.108127266
158	0x3e833371	0.25625184
159	0xbd9bf1fa	-0.07614513
160	0xbdd3853e	-0.10328148
161	0xbe364f21	-0.17803623
162	0x3c54fd41	0.012999834
163	0xbdd95e49	-0.106136866
164	0xbdd2f71d	-0.10301039
165	0x3e05d996	0.13071284
166	0xbb098d9e	-0.0020988951
167	0x3e0029ec	0.12515992
168	0x3e0f6f66	0.14007339
169	0xbe31b095	-0.17352517
170	0xbda0e7c8	-0.07856709
171	0xbd49103d	-0.04908775
172	0xbdf91159	-0.12161512
173	0xbe4bc61b	-0.1989979
174	0x3d70c386	0.058780216
175	0xbdd9aa54	-0.10628191
176	0xbe2953b5	-0.16535838
177	0x3d3560dd	0.04428183
178	0x3d7aa4bd	0.061192263
179	0xbe22fb84	-0.15916258
180	0xbe25b5ae	-0.16182587
181	0xbe2bd410	-0.16780114
182	0x3e09cac2	0.13456252
183	0x3c1cd11f	0.009571343
184	0xbd97fa2b	-0.07420763
185	0x3dd0a7ed	0.10188279
186	0xbe9b791b	-0.30365834
187	0x3e01054a	0.12599674
188	0xbdbcde34	-0.092220694
189	0x3e24fb5b	0.1611151
190	0x3dde680a	0.108596876
191	0xbdd78b19	-0.10524578
192	0x3d82c461	0.063851126
193	0xbddf5888	-0.10905558
194	0x3d8c88d2	0.06862034
195	0x3dceda3e	0.1010022
196	0x3d33f774	0.04393716
197	0x3da8e161	0.082461126
198	0xbd3deb9f	-0.046367284
199	0xbd047088	-0.03233388
200	0xbdd33bbf	-0.1031413
201	0x3db6f3e4	0.08933237
202	0xbcc525b4	-0.02406583
203	0xbe291ba5	-0.16514452
204	0x3caeb454	0.021326222
205	0x3d721e98	0.059111208
206	0xbd72a72d	-0.059241462
207	0x3db45440	0.08805132
208	0x3da6c757	0.0814349
209	0xbde2ee34	-0.1108059
210	0x3d8785b5	0.066172995
211	0xbe33256e	-0.17494747
212	0x3dc9fb97	0.0986244
213	0x3e24c711	0.16091563
214	0x3d8934a5	0.06699494
215	0xbe1f5860	-0.15561056
216	0xbd29e464	-0.041477576
217	0xbe19333f	-0.14960955
218	0x3dc49a78	0.09599775
219	0xbd03971e	-0.03212654
220	0xbd4adc4f	-0.04952651
221	0xbc95d244	-0.018288739
222	0xbdffb91b	-0.12486478
223	0x3dba571d	0.09098647
224	0x3d06d499	0.032917593
225	0xbd1f8af0	-0.03895086
226	0xbc76312c	-0.015026372
227	0x3e066ece	0.13128206
228	0xbda531b1	-0.080661185
229	0xbd844882	-0.06459142
230	0xbe120689	-0.14260305
231	0xbd25aeea	-0.040450014
232	0x3df63578	0.12021917
233	0xbdc642b8	-0.09680694
234	0xbd187856	-0.037224136
235	0xbd9e30d2	-0.077241555
236	0xbd518732	-0.051154323
237	0xbd289d24	-0.041165486
238	0x3d950899	0.072770305
239	0x3dc6d3e7	0.09708386
240	0x3df39965	0.11894492
241	0xbe2d3b03	-0.16917042
242	0xbe3b8329	-0.18311752
243	0x3db68195	0.089114346
244	0xbe2f7fda	-0.17138615
245	0x3dbbc48e	0.09168349
246	0x3e0370ff	0.12836073
247	0xbe1ebfff	-0.15502928
248	0x3c5087ae	0.012727661
249	0xbe48d9ea	-0.19614378
250	0xbcb14dcd	-0.021643544
251	0xbc4c7af1	-0.012480483
252	0x3e1893f7	0.14900194
253	0xbe072341	-0.13197042
254	0xbd7e4cfd	-0.06208514
255	0xbce6f330	-0.028192133

fc2.bias f4 [64]
0	0x3e221192	0.15827015
1	0x3940d1b6	0.0001838867
2	0xbe0ba074	-0.13635427
3	0x3e3627df	0.17788647
4	0xbda28251	-0.07935012
5	0xbd01c919	-0.031685922
6	0xbe144937	-0.14481054
7	0xbdb3a5a1	-0.087718256
8	0xbd9930af	-0.07479989
9	0xbe1471cd	-0.14496537
10	0x3d12be6c	0.03582613
11	0x3e1af62a	0.15132967
12	0x3d9d2dea	0.07674773
13	0x3e241596	0.1602386
14	0x3e0bca8e	0.13651487
15	0xbd8b3b6f	-0.067984454
16	0x3db508f4	0.08839598
17	0x3dec0107	0.115236335
18	0x3d631e43	0.05544878
19	0x3d9225ea	0.07136138
20	0x3dcd5499	0.10025901
21	0xbdecb795	-0.11558453
22	0x3e3edb2f	0.186383
23	0x3da6f0b0	0.08151376
24	0xbe12d3f9	-0.14338674
25	0x3d2557ad	0.040366817
26	0x3e189bf0	0.14903235
27	0xbe08fb75	-0.13377173
28	0xbe377447	-0.1791545
29	0xbe1dffde	-0.15429637
30	0x3e405af0	0.1878469
31	0x3d9da619	0.07697696
32	0x3c456249	0.012047359
33	0xbd5bbf6c	-0.05364935
34	0x3dfc53fe	0.12320708
35	0xbd4ac5ac	-0.04950492
36	0x3da34fb2	0.07974185
37	0x3e12ad89	0.14324011
38	0xbc12d681	-0.0089622745
39	0xbcf6c32d	-0.030122364
40	0xbe021552	-0.12703446
41	0xbe0268a3	-0.12735228
42	0xbd12e851	-0.035866085
43	0x3d0d4e38	0.034498423
44	0x3e851dda	0.25999337
45	0x3d7e9c65	0.06216087
46	0x3e2654ef	0.16243337
47	0xbe1a41da	-0.15064183
48	0xbd14528c	-0.036211535
49	0x3db45bbd	0.0880656
50	0xbc02cfef	-0.007984146
51	0x3e0cbae4	0.13743168
52	0x3e093e77	0.13402735
53	0xbe116af1	-0.14200951
54	0xbd8e8ad3	-0.06960072
55	0xbe110fa5	-0.14166124
56	0xbbe5e081	-0.0070152883
57	0xbe2409bf	-0.16019343
58	0xbd1629cc	-0.036660954
59	0xbe107cbe	-0.14110085
60	0xbdae4596	-0.08509366
61	0xbe1e9827	-0.15487729
62	0x3e175856	0.14779791
63	0xbe19aebf	-0.15008067

fc3.weight f4 [5, 64]
0	0x3e1e264f	0.15444301
1	0x3d03cb44	0.03217627
2	0x3c915a90	0.017743379
3	0xbdf63e12	-0.12023558
4	0x3ec4dd98	0.38450313
5	0x3d7faa17	0.06241807
6	0x3d37c03c	0.044861063
7	0xbd87ebfc	-0.06636807
8	0xbcb1ee1a	-0.021719981
9	0x3ecc402f	0.39892718
10	0x3e65473b	0.22390454
11	0xbf69926f	-0.91239065
12	0x3ead887c	0.33893192
13	0xbd88851c	-0.066660136
14	0x3d92d268	0.07169038
15	0x3e74f130	0.2392013
16	0x3dd09ec5	0.10186533
17	0xbf240fc4	-0.64086556
18	0x3e935049	0.2877219
19	0x3decaa2b	0.115558945
20	0x3e9ab7b4	0.3021828
21	0x3c85a308	0.01631309
22	0xbe834ff1	-0.25646928
23	0x3e8517b1	0.25994638
24	0x3e9a8264	0.30177605
25	0x3e878cd1	0.26474622
26	0xbfb225d0	-1.391779
27	0xbf868393	-1.0508903
28	0x3d434aab	0.04767863
29	0x3dbcc3ee	0.09217058
30	0xbe268cad	-0.16264601
31	0x3cff1a70	0.031140536
32	0x3ea3b270	0.31972075
33	0xbdb801c0	-0.08984709
34	0xbd6c0b70	-0.057628095
35	0x3f84b34c	1.0367217
36	0xbf9f5ce4	-1.2450223
37	0x3df25244	0.11832097
38	0xbc19bef0	-0.009383902
39	0x3deaa3e4	0.11457041
40	0x3e744e95	0.23858102
41	0x3d1e53f8	0.038654298
42	0x3d8e825e	0.06958459
43	0x3e4485fe	0.19191739
44	0xbf7ede21	-0.9955769
45	0xbe8466b0	-0.25859594
46	0x3bffaf8a	0.0078029083
47	0x3c66af10	0.014079824
48	0x3eb0358d	0.34415856
49	0x3d821d48	0.06353241
50	0xbeb0c92f	-0.3452849
51	0x3ea11abe	0.31465715
52	0x3ea63769	0.3246415
53	0x3df4cb8c	0.11952886
54	0xbfa29d3f	-1.2704238
55	0xbe026d74	-0.12737066
56	0x3e4eafd6	0.20184264
57	0x3ebe3ceb	0.37155852
58	0x3aa8b7a5	0.0012872113
59	0x3d737e30	0.059446514
60	0x3d3d2e44	0.0461867
61	0xbdc12968	-0.09431726
62	0x3dda70fe	0.10666083
63	0x3f29ccb4	0.6632798
64	0x3e377dbf	0.17919062
65	0xbdf659e8	-0.12028867
66	0xbd64411c	-0.055726156
67	0x3e1806c9	0.14846338
68	0x3e5ebd65	0.21751936
69	0xbc7118a4	-0.014715347
70	0xbd14bd98	-0.036313623
71	0xbd5f77bc	-0.054557547
72	0x3dbff2f8	0.093725145
73	0x3e089bd3	0.13340692
74	0x3e8a80a8	0.27051282
75	0xbf194623	-0.59872645
76	0x3e6da59e	0.23207709
77	0x3dba67eb	0.09101852
78	0x3f8840f9	1.0644828
79	0x3de63be9	0.11241896
80	0x3e290d7b	0.16509049
81	0xbf239abf	-0.63908
82	0x3d43514c	0.047684953
83	0x3e47a60d	0.19496937
84	0x3e83b740	0.25725746
85	0xbd86d2c0	-0.06583166
86	0x3ecd7f65	0.40136257
87	0x3df0497f	0.11732768
88	0x3e3c77da	0.18405095
89	0x3da1a49c	0.07892725
90	0xbf4693e2	-0.775694
91	0xbe16c9f3	-0.14725475
92	0xbcd133e2	-0.025537435
93	0x3d8bd314	0.06827369
94	0x3e0f065a	0.13967267
95	0x3dad666b	0.084668
96	0x3d883e60	0.06652522
97	0xbec98f07	-0.39366934
98	0xbde22c3c	-0.11043593
99	0x3f55dc57	0.83539337
100	0xbed157e5	-0.4088737
101	0xbbf00346	-0.007324609
102	0xbdfb4078	-0.12268156
103	0xbd9643a8	-0.07337123
104	0x3d800485	0.06250862
105	0xbd126fb0	-0.035751045
106	0x3e10ec1a	0.14152566
107	0xbf078065	-0.5293029
108	0xbfdee879	-1.7414695
109	0x3e039f20	0.1285367
110	0x3e18efe0	0.14935255
111	0x3ca74b68	0.020421699
112	0xbf6b536d	-0.9192417
113	0x3c391805	0.011297231
114	0x3f1c844b	0.61139363
115	0xbe8e0ac1	-0.2774258
116	0xbd98b01e	-0.07455467
117	0x3de6f4e2	0.112771764
118	0xbf5a5cba	-0.8529774
119	0xbcaf5357	-0.021402044
120	0xbf192c73	-0.5983345
121	0x3e82f1c5	0.2557508
122	0x3f404bb0	0.7511549
123	0xbd51d510	-0.051228583
124	0x3d100b88	0.035167247
125	0x3db0adba	0.08626886
126	0x3e50bd4d	0.20384713
127	0xbeabc9d4	-0.3355242
128	0x3de78112	0.11303915
129	0xbdbbd440	-0.09171343
130	0x3d5c8800	0.053840637
131	0x3dfc269d	0.123120524
132	0x3e39cbc2	0.18144134
133	0xbd5ae6a5	-0.053442616
134	0x3d85ca78	0.065327585
135	0x3d7781fc	0.060426697
136	0x3d732fe1	0.059371833
137	0x3eaeb9ef	0.3412623
138	0x3e3abb5c	0.18235534
139	0x3ea46b38	0.3211305
140	0x3e711afe	0.23545453
141	0x3e5e7721	0.21725132
142	0x3d6c5ec7	0.057707574
143	0x3e684d68	0.22685778
144	0x3ece6804	0.40313733
145	0xbdbc3e16	-0.091915295
146	0x3e5c6bfd	0.2152557
147	0x3e2cdf2a	0.16882005
148	0x3eb33497	0.3500106
149	0xbc9e8660	-0.019351184
150	0x3eb568e5	0.3543159
151	0xbd35e050	-0.044403374
152	0x3f1ad219	0.60476834
153	0xbbce7bd5	-0.006301383
154	0x3f23902c	0.63891864
155	0xbf33d7ee	-0.7025136
156	0xbca00355	-0.019532839
157	0x3da8311c	0.08212492
158	0x3d300571	0.04297394
159	0xbd9e96f7	-0.07743638
160	0x3e6917a4	0.22762924
161	0x3ef27acf	0.4735932
162	0xbd01ba2d	-0.03167169
163	0x3c238676	0.009980788
164	0x3d895439	0.06705517
165	0x3e4d4a7c	0.20047945
166	0x3d7dfd54	0.06200917
167	0x3d39da3f	0.04537415
168	0x3ef64ddf	0.48106286
169	0x3d6245a0	0.05524218
170	0x3eb85ec0	0.3600979
171	0xbf8635a0	-1.0485115
172	0xbfbda3dc	-1.4815631
173	0x3f2951bf	0.6614036
174	0x3e6d2986	0.23160371
175	0x3cec0d18	0.028814837
176	0xbf362b29	-0.7115961
177	0x3e3019f6	0.17197403
178	0x3ec17c73	0.3779026
179	0xbdc628da	-0.096757606
180	0x3e454020	0.19262743
181	0x3d31daf4	0.0434217
182	0xbec8429c	-0.3911332
183	0x3e5e7458	0.21724069
184	0xbf35b280	-0.70975494
185	0x3eb91b8c	0.3615383
186	0x3ea6310a	0.3245929
187	0x3d50256c	0.05081694
188	0x3c827dc8	0.015929118
189	0x3db4d120	0.0882895
190	0x3ccfbffc	0.0253601
191	0xbf654237	-0.8955416
192	0x3e069b46	0.1314517
193	0x3ba049e0	0.004891619
194	0xbc87abe0	-0.016561449
195	0x3e3c437f	0.18385123
196	0x3de85cc8	0.113458216
197	0xbdb7d400	-0.08975983
198	0x3dc75302	0.09732629
199	0x3ac47645	0.001498886
200	0xbcf5193e	-0.029919263
201	0x3e9c7e84	0.30565274
202	0x3eaa9a37	0.33320782
203	0xbf58235a	-0.8442894
204	0xbca80d21	-0.020514073
205	0xbb864cf5	-0.0040985295
206	0x3f94cb49	1.1624538
207	0x3dc0ed2a	0.094202355
208	0x3f330ad9	0.6993843
209	0xbf55a49d	-0.83454305
210	0x3e787774	0.24264318
211	0x3e91df67	0.28490755
212	0x3e8d653d	0.276163
213	0xbdb3a802	-0.08772279
214	0x3f0dddcd	0.55416566
215	0x3d5365e8	0.051610857
216	0x3e65901f	0.22418259
217	0x3c8d0c92	0.017217908
218	0xbf7b71ff	-0.9822082
219	0xbeccd9cc	-0.40009916
220	0xbdab7672	-0.08372201
221	0xbce10a20	-0.027470648
222	0x3e29c00c	0.16577166
223	0xbd543f84	-0.051818386
224	0x3e367388	0.17817509
225	0xbf0ee041	-0.55810934
226	0x3d28d698	0.041220278
227	0x3ef46cc8	0.47739244
228	0xbe9dd901	-0.30829623
229	0x3e83608e	0.25659603
230	0x3dc3167c	0.09525773
231	0x3d0f7ba9	0.03503004
232	0x3e34714c	0.17621344
233	0x3de48fec	0.111602634
234	0xbd665d07	-0.05624106
235	0xbec47cf3	-0.3837658
236	0xbfa708c4	-1.304955
237	0x3f1110b4	0.5666611
238	0x3e6af0be	0.22943398
239	0x3c9b1e18	0.018935248
240	0xbf906ea1	-1.1283761
241	0x3e0bef5c	0.13665527
242	0x3f02062d	0.50790673
243	0xbe1a0f2a	-0.15044847
244	0x3e012e9b	0.12615435
245	0xbdef5426	-0.11685972
246	0xbebfba91	-0.37447026
247	0xbe2765be	-0.16347405
248	0xbf4cc5bb	-0.7998921
249	0x3ec71931	0.38886407
250	0x3f33d97c	0.7025373
251	0x3da059ee	0.07829653
252	0xbda9802e	-0.082764015
253	0xbd2f1284	-0.042742267
254	0x3df2b7f3	0.11851492
255	0xbe110265	-0.1416107

fc3.bias f4 [5]
0	0xbd1f0a4d	-0.038828183
1	0x3e145e34	0.1448906
2	0x387c3c11	6.0137423e-05
3	0x3d8fe2a8	0.07025653
4	0x3e426ecb	0.18987577
